bitcoin_scalping_bot/version 2.0/classifier/classifier.pt (torch, 642027 bytes, 26 tensors)

weight f4 [8, 1, 12, 2]
000000 4f 34 65 bd 22 b4 d3 bd c7 0a 01 3f 7e 3b d0 3e
       -0.05595809 -0.10337092 0.5040707 0.4067039
000010 56 8a 57 bd a7 c7 c2 3e 05 d7 f6 3c a9 e9 5e be
       -0.05262216 0.38042948 0.030131826 -0.21768822
000020 9e 3f d2 bc 9c 70 80 3d 41 96 96 3f a0 06 81 3f
       -0.0256651 0.062714785 1.1764604 1.0080147
000030 4e 87 1a 40 8b 76 e8 3d 34 69 a9 3f 5b d1 55 3d
       2.4145083 0.11350735 1.323523 0.05220161
000040 e5 58 96 be 52 4b 8e 3b 83 5a 13 be a7 af 23 be
       -0.29364696 0.004342475 -0.14389996 -0.15984975
000050 a8 96 43 3f 60 0f 13 3f ba 5e 3e 3e b3 dc 52 3e
       0.7640176 0.57445335 0.18590823 0.20592003
000060 a8 ce 73 bd 6e df be 3d 89 6b 99 bf 1f 8f fc be
       -0.059523255 0.093199596 -1.1985942 -0.49327943
000070 e5 fc 90 be f8 51 5f 3e 1a 99 1d bf d2 91 50 be
       -0.28317943 0.21808612 -0.6156174 -0.20368126
000080 7e bc 39 bf 0d 7f 0f bf 51 f2 3e bf ec 45 46 bf
       -0.7255324 -0.5605324 -0.74588495 -0.7745044
000090 a2 61 97 bf d4 a8 1e bf f9 d4 0b bf bb de c4 be
       -1.182667 -0.6197636 -0.54621845 -0.3845118
0000a0 aa 72 08 bf d3 a6 06 bf 4a d2 65 bf 3a a2 38 bf
       -0.53299963 -0.52598304 -0.89774 -0.7212254
0000b0 ed 97 84 bf 1c b6 86 bf 2a 41 39 3d ce 02 c4 be
       -1.0358864 -1.0524325 0.04522816 -0.3828339
0000c0 41 e1 d0 3d 18 6e 47 bb d8 d7 d0 bf 2e ba 4c bf
       0.10199214 -0.0030430611 -1.631587 -0.7997159
0000d0 54 10 0f bd f4 f8 dc 3d cd f6 ec bd 5d c6 f8 be
       -0.03492768 0.107896715 -0.11570511 -0.4858884
0000e0 95 11 d0 be ef 67 25 bf 8c 26 4f bf 19 c7 32 bf
       -0.40638414 -0.64611715 -0.8091819 -0.6983505
0000f0 98 1a 7d c0 0b 27 2d bf f8 b0 32 c0 35 7c a2 bf
       -3.9547482 -0.676377 -2.7920513 -1.2694155
000100 d5 e8 1f bf 7a 1c f1 be 44 60 02 bf f9 72 0e bf
       -0.6246465 -0.47092038 -0.5092814 -0.55644184
000110 58 54 5c bf 2a b9 18 bf 3d b3 03 bf b1 f4 2c bf
       -0.860662 -0.5965754 -0.5144537 -0.6756087
000120 46 77 3a 3f b0 4c 04 bf 8c 9e 1a 3f 87 93 2c 3f
       0.72838247 -0.51679516 0.60398173 0.6741261
000130 38 a0 d0 bc 4c 37 61 bc d5 1a fd 3d 48 16 1e 3d
       -0.025467023 -0.013746094 0.123586334 0.038595468
000140 bf 81 f7 3c 21 e6 c2 3d f5 91 a3 3e a2 83 43 3e
       0.030213235 0.0951655 0.31947294 0.19093183
000150 ff 32 f7 3f e2 87 dd be da d5 a6 3f 0a ec 46 bd
       1.9312438 -0.43267733 1.3034012 -0.04856495
000160 47 0c 59 be 14 c3 4e bd 7e af c3 3d 6b 32 ab 3d
       -0.2119609 -0.05047901 0.09554957 0.08359226
000170 72 45 4a 3e a6 a2 85 3e 3a 52 9f 3e 0f 39 31 3e
       0.19753054 0.26100653 0.3111742 0.17306922
000180 e7 82 63 be 56 9f fe bc ab 55 00 bf 03 91 b5 be
       -0.22217904 -0.031081837 -0.5013072 -0.35462198
000190 a4 ed 1d bd 31 46 af be 96 d6 90 be 86 9f 7c be
       -0.03855671 -0.3423324 -0.28288716 -0.24670228
0001a0 fa 3f 27 bf 28 2e 1d bf 13 46 bb be ae 84 db bd
       -0.65331995 -0.61398554 -0.365769 -0.10718666
0001b0 6c d3 e5 bf ba 0d 48 bf 53 29 6c bf 6d 10 30 bf
       -1.7955146 -0.78145945 -0.92250556 -0.68775064
0001c0 96 ce a7 be 90 21 b0 be 31 a6 20 bf 1c 38 d9 be
       -0.327748 -0.34400606 -0.6275359 -0.4242562
0001d0 49 c6 b9 be e4 7e db be a5 c7 b6 3c 51 25 c4 be
       -0.36284092 -0.42870247 0.022311995 -0.3830972
0001e0 cc 33 dd be 8d 3a 31 3f db 73 3b bf b4 5f b8 3e
       -0.4320358 0.69229966 -0.73223656 0.36010516
0001f0 7a 14 31 bc 34 58 b6 3b b7 38 d5 be e8 e9 16 bd
       -0.010808105 0.005564714 -0.41644832 -0.036844164
000200 00 28 1f bf 89 5f 35 bf e4 a1 6a bf d9 2c 45 bf
       -0.6217041 -0.708489 -0.91653275 -0.7702156
000210 04 fb 06 c0 ae 4b ce 3e ae 60 17 bf 97 d4 b4 3e
       -2.1090708 0.40292114 -0.59131896 0.35318443
000220 3d cd b1 be cf 32 64 3e 21 c2 1e bf 11 55 8c be
       -0.34726897 0.22285007 -0.6201497 -0.2740865
000230 52 9f 7f bf 96 93 59 bf 6e f9 77 be 41 2d 62 be
       -0.9985248 -0.84990823 -0.24216244 -0.22087575
000240 bc 7a a1 3e 2c 46 85 bd 3b 29 a4 bf 34 c9 ea 3e
       0.3153895 -0.06507525 -1.2825083 0.4585663
000250 be c7 88 bd c2 79 74 3e f2 e2 6f 3c a0 af 74 3e
       -0.06678723 0.23874572 0.01464151 0.2389512
000260 b3 82 84 bf ec 10 78 bf f9 30 13 c0 be 9f 04 c0
       -1.0352386 -0.9690082 -2.299864 -2.07225
000270 00 f3 6d c0 d3 40 ad bf dc 0b 0c c0 40 34 90 bf
       -3.7179565 -1.3535408 -2.1882238 -1.1265945
000280 06 b5 6f be 17 7f 79 3e 34 b9 3b bf 4b d8 3b bf
       -0.23408899 0.24364887 -0.7332947 -0.7337691
000290 69 bc eb bf 58 01 d7 bf 7c 16 4d be 97 1a b8 be
       -1.8416873 -1.6797285 -0.20028108 -0.35957786
0002a0 ff 0f 23 3d a3 1a 6b 3e 9f a9 87 bf c6 ec 6a 3e
       0.039810177 0.2295938 -1.0598639 0.22941884
0002b0 9f a6 72 3e b2 7b 2b be 94 9f 9c be 71 f3 4a 3e
       0.23696373 -0.16746405 -0.30590498 0.19819428
0002c0 7f 92 98 bf 50 ee 9b bf cc 5d 87 bf 66 5f 52 bf
       -1.1919707 -1.2182102 -1.05755 -0.82176816
0002d0 c0 59 ee bf 85 89 57 bb fc 6b 42 bf 1d 46 15 be
       -1.862114 -0.0032888365 -0.7594602 -0.14577527
0002e0 2c f5 11 bf 4e 75 a3 3d 34 01 81 bf 09 33 03 bf
       -0.5701473 0.079813585 -1.0078492 -0.5124975
0002f0 f9 d2 ad bf 05 8b 99 bf 91 34 00 be b1 f9 a3 be
       -1.3580009 -1.199555 -0.12520052 -0.32026437

bias f4 [8]
000000 61 92 c9 3d 11 b1 da 3d 72 0a 0d 3e 42 be 87 3d
       0.09842373 0.10678304 0.13773516 0.06628086
000010 01 1a bd bd f1 f6 f6 3d d1 92 08 be ea cb 3b 3e
       -0.092334755 0.12058819 -0.13337256 0.18339506

weight f4 [8]
000000 87 0f 94 3f 42 1d 4a 3f f7 e9 28 3f be 64 aa 3f
       1.1567239 0.78950894 0.65982 1.3311994
000010 2b c9 80 3f 58 9e a8 3f 59 fc 29 3f dd fe 48 3f
       1.0061392 1.3173323 0.66400677 0.7851389

bias f4 [8]
000000 38 98 c5 bc f0 97 26 bd 68 e2 08 3d 06 7d a0 3b
       -0.024120435 -0.040672243 0.033419043 0.0048977165
000010 2f 84 69 3c 49 48 c4 3d 25 a4 29 3e 62 c1 2d bd
       0.014252706 0.095841 0.16566522 -0.042420752

running_mean f4 [8]
000000 99 43 cf c7 88 b5 83 46 d9 18 be c6 a0 50 0b 46
       -106119.195 16858.766 -24332.424 8916.156
000010 8b 08 ec 47 42 3e 00 45 8e 13 4e c7 a0 75 85 c6
       120849.086 2051.891 -52755.555 -17082.812

running_var f4 [8]
000000 23 41 51 5b a5 05 33 5b bf b3 a8 59 52 69 22 57
       5.889989e+16 5.0390227e+16 5.9356786e+15 1.7857323e+14
000010 85 d4 2d 5b ec a6 1c 56 97 0d b7 5a ae 5f fb 5a
       4.892884e+16 4.3060184e+13 2.5762431e+16 3.537771e+16

weight f4 [16, 8, 1, 17]
000000 e5 42 c8 3e 75 e4 53 3e c1 af 83 bd b9 ca a8 3c
       0.39113536 0.20692618 -0.06430007 0.020604478
000010 ad 56 0a 3e 9d aa 19 be 8c 08 7d bd 46 07 c7 bc
       0.13509627 -0.1500649 -0.06177573 -0.02429546
000020 60 37 92 3d 8a 19 0c bd 43 5c 03 3d fe 9e af 3d
       0.07139468 -0.034204043 0.03207041 0.08575247
000030 36 38 15 3c 69 82 61 3e 03 ad bb bd c5 5b 8f 3e
       0.00910764 0.22022404 -0.09163859 0.27999702
000040 5a 41 f6 3e c1 74 81 bd 29 bd 31 be 84 ed e6 3d
       0.48096734 -0.06321097 -0.17357315 0.11275771
000050 58 e1 c9 bd 6a b7 d4 3c 95 08 ee 3d b2 3e f2 3c
       -0.09857434 0.025966365 0.11622731 0.029570911
000060 7e b6 41 bd 7a d4 10 3e d9 cf 1a be b9 58 8a 3e
       -0.04729318 0.14143553 -0.1511835 0.27020815
000070 e5 1b 92 3e c2 33 61 3c 78 66 d2 3d d6 d9 9e 3d
       0.28536907 0.01374525 0.102734506 0.07756393
000080 c7 30 79 be 52 22 a9 be 37 e7 9f be c9 5b b4 3c
       -0.24335013 -0.33033997 -0.3123109 0.022016423
000090 87 8e 09 3d 07 ae 6e 3e 90 b5 7c 3d fc 8d 08 bc
       0.03358319 0.23308574 0.06169659 -0.008334633
0000a0 11 b1 55 bd 8e 6a 5a bd 7f 27 c0 3d af ca 59 be
       -0.052170817 -0.053324275 0.09382533 -0.21268724
0000b0 40 43 8c be 89 b2 21 bb 05 88 f4 3d 3b 18 df 3e
       -0.27395058 -0.0024673066 0.11940006 0.43573174
0000c0 87 d2 69 3d 2d 99 6e be 53 05 21 bf dd ea 10 3e
       0.05708554 -0.2330062 -0.6289875 0.14152093
0000d0 83 e5 8e 3d 89 ab 33 3e a8 24 65 be 90 af 6e bc
       0.0697737 0.17545904 -0.22377264 -0.014568225
0000e0 b6 ef a9 3d 13 01 35 bd 02 55 25 3d ae 52 80 bd
       0.08297674 -0.044190478 0.040364273 -0.0626577
0000f0 51 cb 30 be a4 7c 9c 3c de 23 c8 bc 6a 2a 25 3d
       -0.17265059 0.019102402 -0.024431165 0.040323652
000100 3b c9 6b be f0 63 c2 bd 99 5b 3e 3e e8 62 19 3f
       -0.23025982 -0.09491718 0.18589629 0.59916544
000110 e7 50 9e be e9 66 28 be 7f 5f 1d bd f3 3c 4e 3e
       -0.309211 -0.16445507 -0.03842115 0.20140438
000120 62 71 87 3e c1 88 bf 3d 37 0f 53 3b 8f 67 37 3e
       0.26453692 0.093522556 0.0032205114 0.17910598
000130 71 1b 98 3d 9d 18 a5 3c 27 45 82 3c 8c 0b f8 3d
       0.07427109 0.020153338 0.015902115 0.121115774
000140 95 6c 4d 3e c0 13 95 bc 60 35 1e 3e d1 22 3a 3e
       0.20060952 -0.018197894 0.15450048 0.18177344
000150 13 74 1d bf 7b 04 e2 be 48 e2 a3 be 02 32 08 bf
       -0.6150524 -0.44144043 -0.32008576 -0.53201306
000160 d2 f5 03 be ca 3f 03 3e 86 26 70 3e bb 07 5d 3e
       -0.12886742 0.12817302 0.23452196 0.2158498
000170 d5 0c 20 be 99 0b 23 3e bb 26 00 be e7 d3 ea bd
       -0.15629895 0.15922393 -0.12514775 -0.114661984
000180 d8 80 58 3e 9f 0a 9d 3d df 0a d2 3d 81 1a 1e 3e
       0.211429 0.076680414 0.1025598 0.15439798
000190 59 3b 47 bd 53 bf ab bc c5 e8 55 be e4 aa b0 be
       -0.048640583 -0.020965254 -0.20889576 -0.3450538
0001a0 3f 76 92 3d f5 bc c1 bc f4 6f 85 3d 44 7e 0e 3e
       0.0715146 -0.023649672 0.06515494 0.13915354
0001b0 b9 78 35 bc ab 92 a8 3c d9 26 4a 3e a7 90 04 be
       -0.011076146 0.02057775 0.19741382 -0.12945805
0001c0 57 7e 91 be 3f f0 ea 3c 5d 71 69 3d 5e 4d d7 3b
       -0.28416702 0.028679011 0.056992877 0.006570502
0001d0 9d dc cd bd f0 8c 09 be 19 0f 2c bf 87 a0 51 be
       -0.10051844 -0.1343267 -0.6721054 -0.20471393
0001e0 2a 1a 72 bd 6d b9 bc 3c d8 0e f9 3d 87 02 e3 3c
       -0.059106983 0.023037637 0.12161034 0.027711166
0001f0 e5 7f 5f bd ed 84 6f 3e 90 91 89 3e 18 3e ff 3d
       -0.05456533 0.23390551 0.26868868 0.12463015
000200 f8 e7 89 3e 1a b8 8e 3d e4 43 ad 3c 91 ac 16 be
       0.2693479 0.06968708 0.021150537 -0.14714266
000210 3e 5d 23 3b 1c f8 fd 3c 2b bf 10 bc e7 2b 40 be
       0.0024927403 0.031002097 -0.0088346405 -0.18766747
000220 31 29 10 3e f2 86 1c 3e e3 43 b7 3d 2f 97 34 3d
       0.14078213 0.15285853 0.08948495 0.044089492
000230 8c 32 ea bd cf 61 8f be 80 6d a9 bc de 84 c9 3d
       -0.11435422 -0.2800431 -0.020682096 0.098397955
000240 16 b5 c4 bd 75 24 a3 3d 22 d0 16 3e c5 f4 d9 3d
       -0.09604852 0.07965938 0.14727834 0.10642389
000250 d2 46 5e 3c b5 f1 52 3e 04 c2 81 be c2 5e 01 bf
       0.01356669 0.20600016 -0.25343335 -0.50535214
000260 23 84 0a be 2a 9f 38 be ef 33 d7 be 8e da f0 be
       -0.13526969 -0.18029466 -0.4203181 -0.47041744
000270 95 e6 77 bd 38 de d1 3d 97 b7 21 3e 89 ed 18 3e
       -0.060522635 0.10247463 0.1579269 0.14934362
000280 58 8a 3e 3e 57 d2 65 3e 4a 72 be 3d 4a 9e c8 bd
       0.18607461 0.2244352 0.09299143 -0.09795816
000290 a7 92 51 3d 9b 93 9f bc b6 d8 68 3d 64 fa ef bc
       0.05116525 -0.019479563 0.056847297 -0.0292942
0002a0 d3 f7 4b be c0 4a 98 3e 73 fc 49 3c e5 ef 58 be
       -0.19918756 0.2974453 0.012328255 -0.21185263
0002b0 3c 1e d7 bd b0 2b 89 3e 23 b3 45 3e a7 2e d9 3c
       -0.105038136 0.26791143 0.19306616 0.026511503
0002c0 4e e5 e1 bd 91 98 93 be 48 24 0d 3c bf 42 b2 3d
       -0.110300645 -0.28827336 0.008614607 0.08704137
0002d0 92 8b 6b 3b b8 f4 cc 3d 5b 41 5b 3c 78 6a ff 3c
       0.0035941345 0.10007614 0.013382281 0.031178698
0002e0 dc 79 38 bb 0b 71 e6 3d cf c4 a8 3e 35 60 c1 3e
       -0.0028148806 0.1125203 0.32962653 0.37768713
0002f0 e1 62 9f 3e b0 ba 48 be f0 5b e8 3c e7 e7 96 bd
       0.31130126 -0.19602466 0.028364152 -0.073684506
000300 29 f8 78 bd 07 33 cb 3d e4 ef 80 be 40 82 8d 3c
       -0.06078354 0.09921842 -0.25183022 0.017274022
000310 17 96 ec bd 9c 8e 2f 3e 8d 6a df 3c 87 86 89 3d
       -0.11552065 0.17144245 0.027272487 0.06715112
000320 27 ed 9f 3d 34 00 11 bd b1 14 87 be 72 bf 1a bd
       0.07808905 -0.035400584 -0.26382974 -0.037780233
000330 e7 e7 e8 3e 2f 26 cd be 70 7f d3 be ce 34 b5 be
       0.45489427 -0.40068194 -0.41308165 -0.3539185
000340 5b 6b 32 bd 28 13 8e be 4e 85 19 3d 29 d8 df bd
       -0.043559413 -0.2774899 0.037480645 -0.10929901
000350 4e bf 77 bd b0 e8 de 3d a1 25 56 be 71 cd ce 3d
       -0.060485177 0.10884225 -0.20912792 0.100977786
000360 fa c4 b4 be 69 7b a4 be a1 42 fb be 1b be cc 3d
       -0.3530653 -0.32125404 -0.4907427 0.09997197
000370 a7 5a 0b 3e 8e 98 5a be c1 13 ca 3d 98 ae a0 3c
       0.136088 -0.21347257 0.09867049 0.019614503
000380 4a 96 96 be e2 3f a9 3e e0 e4 1f bd 0c 20 d3 3d
       -0.29411536 0.3305655 -0.03903663 0.10308847
000390 c6 ab 35 3e d8 c3 c0 bd 13 30 85 bd e2 81 ca 3e
       0.17741308 -0.09412354 -0.0650331 0.39552218
0003a0 d0 e2 bb 3d 98 a5 22 bd 27 ea 45 be 97 e8 8d be
       0.091741204 -0.039708704 -0.19327603 -0.27716514
0003b0 81 d5 a9 bd 90 06 a8 3e d6 56 a7 be 60 85 ad be
       -0.08292676 0.32817507 -0.32683438 -0.3389082
0003c0 0a d0 41 be 30 d4 75 3e e5 bc 29 3e bc de 98 bd
       -0.18927017 0.24006724 0.16575964 -0.07464358
0003d0 eb 03 b8 be 67 22 bd be 03 98 21 be c5 6c b0 3d
       -0.3594049 -0.3694031 -0.15780644 0.08614496
0003e0 f0 62 28 be e0 43 85 bd 8f e0 05 be 27 d8 89 bc
       -0.16443992 -0.06507087 -0.13073944 -0.016826702
0003f0 f3 40 06 be 6c 78 b9 bd 2d 11 87 3e 31 65 4d 3b
       -0.13110714 -0.09056172 0.26380292 0.0031340832

bias f4 [16]
000000 b3 d2 e7 bc 81 ff 16 3e 42 2c 56 be c0 73 e2 3c
       -0.028298711 0.14745905 -0.2091532 0.027643085
000010 d7 58 51 be 5e 99 20 3e 3e fb b4 bd d9 5d 92 bd
       -0.20444046 0.15683505 -0.08836983 -0.07146806
000020 e0 30 01 bc 9d 15 20 be 48 b2 e7 3d c1 e6 3a bd
       -0.007885188 -0.15633245 0.11313301 -0.04563022
000030 49 b4 a9 3e 42 15 89 be 3e 5e b9 3d dc 59 c0 3d
       0.3314536 -0.2677403 0.090511784 0.09392139

weight f4 [16]
000000 88 f3 61 3f 93 bf 84 3f a3 fa 4d 3f ef 90 3c 3f
       0.88262224 1.0370964 0.80460566 0.7365865
000010 d9 5c 67 3f a7 7b 7f 3f 04 ed 87 3f 6f 90 9e 3f
       0.9037605 0.99798054 1.0619206 1.2387828
000020 21 b3 98 3f 71 ff 97 3f 37 d9 93 3f 7e 54 9c 3f
       1.1929666 1.187483 1.1550664 1.2213285
000030 3f 33 6f 3f 03 db 5e 3f ac 68 ad 3f 50 8f 72 3f
       0.9343757 0.87052935 1.3547568 0.9474993

bias f4 [16]
000000 94 d0 33 be 0a ff 9d bd 3c e6 a8 be 0a ec 4d be
       -0.17560035 -0.077146605 -0.32988155 -0.20109573
000010 d1 47 68 be 08 90 cc 3d 43 4d 3c be 5d f5 7d bd
       -0.22683646 0.09988409 -0.18388848 -0.062001575
000020 04 8a c4 bc da 42 22 bd 85 67 84 be 15 73 bd bd
       -0.023991592 -0.039614536 -0.2586023 -0.09250466
000030 58 dc 94 be 84 79 25 be 1e 9d c8 3d 38 57 8d be
       -0.2907436 -0.16159636 0.09795593 -0.27605605

running_mean f4 [16]
000000 e5 d9 2b be aa 4a 0a bf ab be 88 3f 5c 34 0b 40
       -0.16782339 -0.5402018 1.0683187 2.1750708
000010 0b a8 5d 3f d0 f8 22 bf 81 59 4f c0 a0 32 f2 bf
       0.8658454 -0.6366091 -3.239838 -1.89217
000020 a6 0c 96 bf 8d 36 85 c0 a9 0a d0 bf c4 7a 1c bf
       -1.172261 -4.162909 -1.6253253 -0.61124825
000030 96 5e 7e 3f 79 73 c1 bf 68 b2 ae bf fa 30 29 40
       0.99363077 -1.5113364 -1.3648195 2.6436143

running_var f4 [16]
000000 db 4d 33 40 ec 28 2e 40 23 90 68 40 0b bc 8c 40
       2.801627 2.7212477 3.6337974 4.3979545
000010 c5 89 7b 40 8b aa b0 40 c7 cc 52 41 d3 6a 9c 40
       3.9302838 5.520818 13.174994 4.88804
000020 92 33 4b 40 46 54 18 41 9e 6e 77 40 fb e9 a7 40
       3.1750226 9.520575 3.8661265 5.247312
000030 97 9e 28 40 ad 28 e2 40 89 7f 65 40 0e bb 00 41
       2.6346796 7.0674653 3.5859091 8.045668

weight f4 [32, 16, 1, 9]
000000 0f 60 a4 bd 13 da ed bd 64 1c 46 3e ca de f6 bd
       -0.08026134 -0.1161386 0.19346768 -0.120542124
000010 a6 95 08 bd ca 21 fb bc ad 4a c0 3d 3b 30 3f be
       -0.03334584 -0.03065576 0.09389243 -0.18670742
000020 78 c9 d8 be d7 59 70 be 42 f0 45 3c 15 dc da bc
       -0.42341208 -0.23471771 0.012081208 -0.026716271
000030 bb 9c 95 be 93 a4 21 3d 5e 70 78 3d fd e5 e4 bd
       -0.29221138 0.03946359 0.060654037 -0.11176679
000040 14 d1 a8 bd fd 23 e9 3c 80 2d 3e 3d c6 1c 89 bd
       -0.082430035 0.028459543 0.04643011 -0.06694941
000050 da 54 7b 3d 08 89 bf b9 f3 cf e1 3d e9 6c 07 be
       0.061360218 -0.00036532455 0.11025991 -0.1322514
000060 4f 97 a0 be f5 fd 54 bd 25 5f 21 3f fa e9 89 3d
       -0.3136544 -0.052000005 0.63035804 0.067340806
000070 3d 77 45 bd 13 35 02 3d 7a 2d 10 3d 18 b4 e7 3c
       -0.048209418 0.031788897 0.03519962 0.028284118
000080 36 f4 0b be a4 e1 8b be 6a b7 86 be 40 4b 73 bd
       -0.13667378 -0.27320588 -0.2631181 -0.059397936
000090 47 8f 76 bd bc f0 29 be 81 9c 81 3d 31 e0 5b bd
       -0.060195234 -0.16595739 0.06328679 -0.053680602
0000a0 1b b0 06 be 68 d8 f5 3c 33 5a 40 be 45 f4 39 3c
       -0.13153116 0.030010417 -0.18784408 0.011349742
0000b0 a6 0f fb 3b 3d b5 76 3b e3 34 21 3e 82 86 b1 3c
       0.0076617775 0.0037644648 0.15742831 0.021670584
0000c0 46 93 20 be fd a3 da 3c 17 38 ca bd 5a 65 00 be
       -0.1568118 0.026689524 -0.098739795 -0.12538663
0000d0 18 e0 bc 3d 6e 08 c4 3e 5d 58 e8 3d 03 9d 40 be
       0.0922243 0.3828768 0.11344979 -0.18809895
0000e0 85 1c 3f be cf fa cc 3d 4c 07 ca bd 06 99 83 bd
       -0.18663223 0.100087754 -0.09864673 -0.06425671
0000f0 3b 5a 05 bd 9c 20 66 3e ff bc 93 be 20 c7 8f 3d
       -0.032556754 0.22473377 -0.2885513 0.07020402
000100 bb f6 93 be e6 9a 8e 3d 52 05 dd 3c 68 5d a2 bd
       -0.28899178 0.06963138 0.026980076 -0.07927972
000110 35 2c 5a 3d 44 1d 30 3d 04 e6 9f be 7a 1c 0f bf
       0.053264815 0.04299666 -0.31230175 -0.55902827
000120 42 96 e2 bd ca 48 e4 3c 63 81 b3 3d e8 d9 04 3d
       -0.11063816 0.02786674 0.08764913 0.032434374
000130 a5 84 1e 3e 6a fc 49 be af 5f 6f 3e 34 81 d5 3d
       0.15480287 -0.19725195 0.23376344 0.10425034
000140 1f d8 1c 3e 90 26 ab 3d 25 ba 82 3d c2 48 f3 3d
       0.15316819 0.083569646 0.063831605 0.11879112
000150 84 ff 1b be e8 a1 82 bc e5 fc 10 be 3b 54 6e bc
       -0.1523419 -0.015946344 -0.14158972 -0.014546449
000160 4f 74 7f be 49 e1 62 be 06 ab 00 be 32 64 c7 3d
       -0.24946712 -0.22156252 -0.1256524 0.097359076
000170 09 28 1e bd 9d 88 56 3d e9 df c0 3d 6b fa 08 3e
       -0.0386124 0.05237638 0.094177075 0.13376777
000180 33 56 f7 3d 46 7a 52 be 34 38 bb 3e 3c 48 18 3e
       0.12076988 -0.20554456 0.36566317 0.14871305
000190 f5 96 81 3e ba 3d a5 3d 18 70 73 bd 8c d4 5e bd
       0.25310484 0.08068414 -0.059433073 -0.05440192
0001a0 c7 59 1c 3d 04 19 91 3d 37 6e a9 3b 7f df d2 be
       0.038171556 0.070848495 0.0051706093 -0.4118614
0001b0 00 ef 40 3e 65 54 95 bd c7 2b cc be 8a 9b c8 bd
       0.18841171 -0.072914876 -0.3987715 -0.09795292
0001c0 2d ad bb 3d ab 5c b0 be b1 5c 5e bd 8d f0 02 be
       0.0916389 -0.344457 -0.054287616 -0.12787075
0001d0 d3 4b 80 3d 68 77 3f be 67 3f 35 be 2c d8 83 bd
       0.06264462 -0.18697894 -0.17699967 -0.06437716
0001e0 fc 7b 3b bd dc 0d ad 3c 13 8e 17 be a5 82 10 3e
       -0.045772538 0.021124773 -0.14800291 0.14112337
0001f0 88 b7 10 bf 9a 37 84 be 63 11 24 bc 40 91 f7 3c
       -0.56530046 -0.2582367 -0.010013911 0.030220628
000200 02 aa 2b bd 18 9d 1b 3e 81 6c 8a be d7 ef 11 be
       -0.04191018 0.15196645 -0.27035907 -0.14251648
000210 48 f8 15 3e 0f 7e c0 3b 0a 26 ed bd 4c de 94 3d
       0.14645493 0.0058744024 -0.11579521 0.07268962
000220 ef 5e 4f 3d a1 82 20 3b ae db 13 3e 30 f2 38 3e
       0.050627645 0.0024491923 0.1443927 0.18061137
000230 3b 2d 52 3d a8 ad 85 3e 63 5a d1 3e c0 53 53 3f
       0.051312666 0.26109052 0.40889272 0.8254967
000240 09 28 a6 3d 7f 89 38 3e 64 54 fe bd 66 e8 84 3d
       0.08113105 0.180212 -0.1241844 0.06489639
000250 64 ab b2 bd 42 d4 9d bd e7 91 13 bd 53 9d 35 3e
       -0.087240964 -0.077065006 -0.036027815 0.17735796
000260 b1 fe 85 3e 81 56 16 be d1 e4 48 be b9 c0 c7 3d
       0.26170877 -0.14681436 -0.19618537 0.09753556
000270 1e 96 0e be d3 d0 78 3c ac 13 84 be 3d 5b 89 3d
       -0.13924453 0.015186506 -0.25796258 0.067068554
000280 84 5f ac 3e ca 36 2d 3d bb bc a8 3b b6 e5 0e be
       0.33666623 0.04228858 0.0051494516 -0.13954815
000290 4f b6 1d bd 7d b9 f9 bd fb d1 31 be a1 7d 1f bd
       -0.03850394 -0.12193582 -0.17365257 -0.03893817
0002a0 15 14 69 be 0e 64 81 3e 7c 58 b1 3e 2a e4 39 be
       -0.22761567 0.25271648 0.3463782 -0.18153444
0002b0 84 dc 0a be df 30 ad 3d 25 82 4c 3e 4c 32 1f be
       -0.13560683 0.08456587 0.19971521 -0.1554653
0002c0 8e 9e ba 3e b3 d4 73 3e a7 5f e3 3c 02 7e f6 3c
       0.36449093 0.23811607 0.027755572 0.030089382
0002d0 b4 f2 4f be 84 f0 28 be 77 93 1e be 60 74 43 3e
       -0.20307428 -0.16498 -0.15485941 0.19087362
0002e0 95 17 ab bd 1e 3f b4 3d fb 28 6c bd 08 53 a7 be
       -0.08354107 0.08801101 -0.05765627 -0.32680535
0002f0 57 ce 4c 3e ba 00 51 3e 61 36 14 3e 62 35 34 3e
       0.20000587 0.20410433 0.14473869 0.17598489
000300 9f 35 19 be 21 dd 6b 3d db e2 eb bd c0 0e 6a be
       -0.14961861 0.05758393 -0.115178786 -0.22857189
000310 bb 6c a5 3d ac a8 95 bd 81 98 25 3d 34 43 5f 3e
       0.08077379 -0.07307562 0.040428642 0.2180298
000320 e2 70 f7 3a 2f e3 13 be d2 48 ed bd 4a 60 09 be
       0.0018878246 -0.14442132 -0.11586155 -0.13415638
000330 32 8e 6a 3d 0c 48 e4 3c a2 b8 b4 3e 8e 1b d8 bc
       0.057264514 0.027866386 0.35297114 -0.026380327
000340 9b 47 05 be 6d 21 e2 39 31 bd cd 3d 11 22 88 bd
       -0.13015597 0.00043130983 0.10045851 -0.06647123
000350 c8 67 a6 bc f3 c8 37 3e a2 b3 80 3e 2a de 05 be
       -0.020313159 0.1794775 0.2513705 -0.1307303
000360 43 b2 84 bc 90 07 e7 bc fa 14 89 bd 5d 56 bb 3c
       -0.016198283 -0.028201848 -0.06693454 0.02286833
000370 eb a5 9e 3e a4 7d f8 be ed e2 3d 3e 87 9e f6 3d
       0.3098596 -0.48533356 0.18543597 0.120419554
000380 1c 35 f9 3d 12 ff 2a 3e a8 ad 9c be 98 39 8c be
       0.12168333 0.16698864 -0.3060124 -0.2738769
000390 84 05 07 3e 08 21 3d 3e e2 85 0d 3e 03 eb cf 3c
       0.13185698 0.18469632 0.13820603 0.025380617
0003a0 dd e7 cd 3c 3a 0c e8 3d 56 28 41 3d 43 19 49 be
       0.025134975 0.11330457 0.047157608 -0.19638543
0003b0 7e 00 07 be f3 86 83 3e 03 8c 95 bc bc 3e fe 3d
       -0.13183782 0.25688896 -0.01825524 0.124143094
0003c0 fa e1 a3 3d 77 dd c4 bd c8 02 a1 3e b5 e1 cc bd
       0.08002086 -0.096125536 0.31447434 -0.10003988
0003d0 14 be 8a 3e ab 49 ce be 3f d1 4e be 33 d4 84 bd
       0.27098143 -0.4029058 -0.20197009 -0.06485786
0003e0 45 76 30 3e 4a 0e 9b 3e 7c a1 7b bc 72 28 0c 3e
       0.17232616 0.3028434 -0.015358325 0.13687304
0003f0 c8 56 64 3e 91 c8 12 3e 3a 93 d8 bc 55 8c 4d bd
       0.2229873 0.14334323 -0.02643739 -0.05018266

bias f4 [32]
000000 1f 05 fa 3d 73 09 5b bc 60 f7 6a bd b2 0a 6b 3d
       0.12208008 -0.013368952 -0.05736482 0.057383247
000010 48 a4 ed bd c3 58 37 be e1 ad 10 bd 72 69 d4 3d
       -0.116036 -0.17904954 -0.035322074 0.103716746
000020 b5 2c 0b bd 92 1e 05 be fb e8 53 bd 2e 73 d8 bc
       -0.033978183 -0.12999943 -0.05173586 -0.02642211
000030 e9 49 89 bd 59 7f fe 3d ea 5b e3 3d 67 b2 e4 bd
       -0.0670355 0.124266334 0.111015156 -0.1116684
000040 d6 79 5a be 57 0e d3 3c ee 20 b6 bd 93 e1 bc 3d
       -0.21335539 0.025763674 -0.088929996 0.09222712
000050 b6 79 9d bd 8d 23 ff bd 7a b6 a6 bc 44 ec cf bd
       -0.0768923 -0.12457953 -0.020350683 -0.10152486
000060 20 99 fb 3d 8f c1 63 bd 7e ed 0e bd 4c 42 cd ba
       0.12285066 -0.055604514 -0.03489446 -0.0015660017
000070 a8 73 81 3c 59 88 1e 3d 11 80 4d 3d fd 16 1f 3b
       0.01580222 0.03870425 0.05017096 0.0024275177

weight f4 [32]
000000 52 65 b3 3f 43 c5 d0 3f 21 c6 c7 3f 78 2f b5 3f
       1.4015296 1.63102 1.5607339 1.4155111
000010 57 be c7 3f f1 9f c6 3f 71 02 bf 3f 55 4c a8 3f
       1.5604962 1.551756 1.492262 1.3148295
000020 b9 4b d1 3f 4f b9 ae 3f d3 8e d4 3f 03 06 c6 3f
       1.6351234 1.3650302 1.6606086 1.5470585
000030 e1 ca 96 3f e1 22 a1 3f 96 17 ab 3f 49 ab b9 3f
       1.1780664 1.2588769 1.3366573 1.4505397
000040 ae 2d d1 3f 2e 43 b6 3f 18 57 b1 3f 2e d3 ae 3f
       1.6342065 1.4239252 1.3854704 1.3658197
000050 d1 9c cb 3f 1d db d9 3f a7 0c be 3f a6 04 9c 3f
       1.5907232 1.7019993 1.4847611 1.2188919
000060 4e f1 bc 3f 0b fd ba 3f 61 26 a0 3f 32 67 b7 3f
       1.476114 1.4608473 1.2511712 1.4328368
000070 d0 75 ae 3f 5f 06 d9 3f ad 37 b4 3f 41 15 c5 3f
       1.3629704 1.6955069 1.4079491 1.5397111

bias f4 [32]
000000 ea 0f 52 be e1 b4 c1 be 29 a9 b3 be 57 ce 72 be
       -0.20513883 -0.37833312 -0.35089996 -0.23711525
000010 52 2a b2 be ea 9f d1 be 9d 8b c6 be 62 32 69 be
       -0.34797913 -0.40942317 -0.3877839 -0.22773126
000020 fe 4d 88 be 0e 3d a3 be 28 ff 8a be 48 64 70 be
       -0.26622003 -0.3188252 -0.27147794 -0.23475754
000030 b1 05 dd be 1e 56 6c be 7e 8d b0 be 8a ca c3 be
       -0.43168405 -0.23079726 -0.3448295 -0.38240463
000040 60 c8 8b be 44 39 b4 be 56 ea 65 be b8 e6 b1 be
       -0.27301311 -0.3519994 -0.22452673 -0.34746337
000050 af 37 b1 be a6 c4 e1 be 27 f6 cd be 7d d6 76 be
       -0.34612796 -0.44095343 -0.40226862 -0.24105258
000060 43 96 91 be 71 da cb be 17 da 3d be 95 01 b3 be
       -0.28434953 -0.39815095 -0.18540226 -0.34962144
000070 22 f5 b3 be 85 c5 b3 be 20 99 cf be 43 5b 8d be
       -0.3514796 -0.35111633 -0.40546513 -0.2760869

running_mean f4 [32]
000000 6c 34 2f bf 08 83 1b 3f 45 eb 77 3e 27 b0 87 bf
       -0.68439364 0.6074681 0.24210842 -1.0600632
000010 df 73 4b bf 71 a2 51 bf 91 24 d6 bf 15 f0 3b bf
       -0.7947368 -0.8188849 -1.6729909 -0.7341321
000020 e2 02 67 bf 74 92 80 bf b1 a2 0d bf 38 84 4d be
       -0.90238774 -1.0044694 -0.5532637 -0.20069969
000030 b8 d6 81 be 21 05 82 3f 9c 1b 2e 3f b2 2d 68 3f
       -0.2535913 1.0157815 0.6801088 0.90694726
000040 78 c2 0f c0 13 5c 34 be 2c 26 7e 3f 2b b1 d4 bf
       -2.2462444 -0.17613249 0.99276996 -1.6616567
000050 fb 62 ae 3f e2 9c b0 3e 0b 13 0b 3f 5a 5d 8e bf
       1.3623956 0.34494692 0.5432593 -1.1122239
000060 d3 fb 9d 3f fd 21 a0 3f 98 0a 07 c0 26 a2 45 bd
       1.2342476 1.2510372 -2.1100216 -0.04825034
000070 d5 a5 89 be ad 8e 51 3f 12 3a 30 bf de ea a4 bf
       -0.26884332 0.8185833 -0.6883861 -1.2884176

running_var f4 [32]
000000 16 64 d3 3f 34 00 8b 3f e0 08 93 3f 6d 56 fd 3f
       1.6514919 1.0859437 1.1487083 1.9792
000010 c6 98 cd 3f f0 11 cc 3f a6 e8 2b 40 76 8c 2a 40
       1.6062248 1.5942974 2.6860747 2.664823
000020 22 d7 f5 3f 88 c9 36 40 00 d7 08 40 9c 24 db 3f
       1.9206278 2.8560505 2.1381226 1.7120547
000030 58 27 02 40 6e f8 fc 3f b0 f4 11 40 27 3a d5 3f
       2.0336514 1.9763315 2.2805595 1.6658372
000040 62 73 0b 40 5a f4 bf 3f 2b fa 20 40 9d 55 07 40
       2.1789174 1.4996445 2.515269 2.1146004
000050 2a b1 9d 3f ff f0 bd 3f ad 50 e9 3f 39 84 93 40
       1.2319691 1.4839171 1.8227745 4.6098905
000060 e9 a3 dc 3f b4 5f b9 3f 99 6a 2b 40 5f ba 01 40
       1.7237521 1.4482331 2.6783812 2.0270002
000070 9a 02 e0 3f 7b 0f a7 3f b4 45 09 40 d9 78 e2 3f
       1.7500794 1.3051599 2.1448793 1.769313

weight_ih_l0 f4 [256, 512]
000000 13 15 39 bd 87 1d 97 3e ea 0c 44 3d bb a3 77 be
       -0.045186114 0.29514715 0.04786388 -0.24183552
000010 e7 92 e3 3a d8 ee 16 3e ef a9 25 be 0f ea 86 3c
       0.0017362506 0.14739549 -0.16178106 0.01646903
000020 c9 fa 8f bd 72 a8 14 be f1 ac 96 be 37 03 65 be
       -0.07030255 -0.14517382 -0.2942882 -0.22364508
000030 00 98 4a be 06 e6 27 be 56 73 f1 bc 59 1e 08 be
       -0.19784546 -0.1639634 -0.029473942 -0.13292827
000040 7b 9c 8b be e3 93 d1 3c 36 4a ba 3c a5 b4 48 3d
       -0.27267823 0.025583213 0.022740465 0.0490004
000050 57 11 24 be a1 72 f8 3d 94 b4 1f be a0 fb 64 3e
       -0.1602224 0.12131239 -0.15596229 0.22361612
000060 b7 bb ea bd 99 c6 2e bd 76 50 bb bd 51 1a 3f 3d
       -0.11461585 -0.042669866 -0.09146206 0.046655957
000070 53 99 a5 bd 1f f5 9c be de 36 9f be 51 61 03 3e
       -0.08085885 -0.30655763 -0.31096548 0.12830092
000080 68 7e e3 3d d9 f3 1e 3e e9 53 d7 3b 70 7a 14 be
       0.111080945 0.15522708 0.006571282 -0.14499831
000090 18 0b 93 be a3 d0 5b 3a 88 36 50 3e e0 89 e9 bc
       -0.287194 0.00083852763 0.20333302 -0.028508127
0000a0 14 d5 29 bf f4 6c 9b be 90 16 0e bf 67 84 e6 bd
       -0.66340756 -0.30356562 -0.5550318 -0.112557225
0000b0 0c bb 00 3e b1 ac 02 3e bf ac e0 bd 7b 65 88 be
       0.12571353 0.12761189 -0.10970449 -0.26639923
0000c0 af 66 84 be ac 3b 29 be 39 bc 6c be 7c 9b 94 bd
       -0.2585959 -0.1652667 -0.23118676 -0.07256219
0000d0 e6 1e 69 be bb 54 67 be 80 4d 0a 3e 18 aa 06 be
       -0.22765693 -0.22590916 0.13506126 -0.13150823
0000e0 c2 3f 96 3e a6 65 9a 3e 6f ae 2c 3e 4d 73 55 bd
       0.29345518 0.30155677 0.16863416 -0.052111913
0000f0 47 9f 5c bc fa ed 67 3e c2 52 77 3d 23 31 81 3d
       -0.013465709 0.22649375 0.06038166 0.063082
000100 56 26 84 be 7a 5a 04 bd 0c c7 bc 3e 11 c0 bb 3c
       -0.25810498 -0.032312848 0.3687061 0.022918733
000110 fc 8c 2c bd d1 76 96 3e a7 2d 27 3d 6a a5 90 3e
       -0.04212664 0.29387525 0.04081502 0.282512
000120 82 c5 cf bd 1d 14 20 3e 33 78 01 3d 06 8b 9f 3e
       -0.101450935 0.15632673 0.03160877 0.31160754
000130 61 e3 80 be fa 3b 2a be 48 86 05 3e ef e4 dd 3d
       -0.25173476 -0.16624442 0.13039505 0.10834681
000140 aa 73 0f 3d 25 76 14 3e 7d b4 d9 bd ea 53 45 be
       0.035022415 0.14498194 -0.106301285 -0.19270292
000150 2a 18 5b 3d 41 9e d8 3d f2 46 09 3e d5 3d 10 3e
       0.05348984 0.105770595 0.1340597 0.14086087
000160 32 c9 43 3e d5 7c c6 3d 11 39 76 3c f2 9c a9 3d
       0.19119719 0.096917786 0.015028254 0.08281888
000170 ea d7 80 bd a7 14 c9 be 81 b8 f2 be 83 1f 06 bf
       -0.06291182 -0.3927357 -0.4740639 -0.52391833
000180 03 9f d1 3d f4 b5 87 be 52 09 01 3e c8 76 78 3e
       0.10235407 -0.26506007 0.12601212 0.24264061
000190 4e ae 97 3c 7b c1 d2 3d fa 6b b3 3d ce 5f 4a bc
       0.018515732 0.1029081 0.08760829 -0.012351943
0001a0 a8 fc 0c be 5e 1c 3a be b4 67 0f be f0 dd 24 be
       -0.13768256 -0.18174884 -0.14004403 -0.16100287
0001b0 e1 66 61 ba a1 87 03 3e b3 aa 01 3e 99 45 a0 bc
       -0.0008598399 0.12844707 0.12662773 -0.019564437
0001c0 7d b5 a0 be 9b c4 2a 3d 25 60 4c be c3 80 bd 3e
       -0.31388465 0.041691404 -0.19958551 0.370123
0001d0 ba e0 34 3e df 2f e9 bd 6f 2c 22 be 3b f2 ff 3d
       0.17663851 -0.11386084 -0.15837263 0.12497374
0001e0 18 f0 1b 3e 4b db 10 bc c9 4c a4 3d 18 2d 93 bc
       0.15228307 -0.008841346 0.08022458 -0.017965838
0001f0 b5 4e 2a 3e c7 16 0e 3e d2 9a 58 3d e7 07 b1 3a
       0.16631587 0.13875876 0.052882023 0.0013506383
000200 3b f7 80 bd e2 c8 3b bd 8c 4e 53 be 8f c8 70 3d
       -0.062971555 -0.045845874 -0.20635432 0.058785018
000210 56 4e dc be 05 20 a4 bd ac 68 89 bd 44 e2 00 3f
       -0.43028516 -0.0801392 -0.06709418 0.50345254
000220 c6 7e 12 bf 96 5a a1 be 83 0e 3e 3e fd dd b6 3e
       -0.5722469 -0.31514424 0.18560223 0.3571624
000230 7c 62 05 3e a3 84 f5 3d 57 f5 0a 3d 8b 2c 82 3c
       0.1302585 0.11988189 0.03392538 0.01589038
000240 d8 66 84 3e 1a 50 88 be 72 d5 d7 bc 33 c2 80 be
       0.25859714 -0.26623613 -0.026346896 -0.25148162
000250 6e a9 e5 3d 8b 52 16 be c5 0d 34 be 9c ca 11 3d
       0.11213957 -0.14679925 -0.17583378 0.035593614
000260 0f 09 3d be b6 f2 91 bd 63 5b ac 3d c9 56 d1 3d
       -0.18460487 -0.071263716 0.08415868 0.10221631
000270 91 c1 55 3e 33 b4 1d 3d 2b dd 38 bb 8e 47 40 be
       0.20874621 0.03850193 -0.0028207998 -0.18777296
000280 f1 d8 31 3e 36 12 fa bd a6 69 af bd 24 6e 89 be
       0.17367913 -0.12210505 -0.08565073 -0.26841843
000290 83 99 41 be 8b 33 88 be 5d 10 9f bd c5 0f 99 be
       -0.18906216 -0.26601824 -0.07766793 -0.29894844
0002a0 46 2d 06 be ab 56 5f be 9c b9 ec be 5d 4f 54 be
       -0.13103208 -0.21810405 -0.4623536 -0.207334
0002b0 39 9a 03 bd ad a6 eb bd 4b f4 99 bd 75 32 50 bd
       -0.0321295 -0.115064 -0.07517298 -0.05082937
0002c0 c9 11 a6 3c 22 b7 2a be 1d 32 df 3d d1 28 21 3e
       0.020272152 -0.16671422 0.1089823 0.15738226
0002d0 d4 72 11 bf 67 47 f7 3d 0b 5d 3c 3e 76 fa 0d be
       -0.5681584 0.12074166 0.18394868 -0.13865075
0002e0 53 dc 80 be 80 bd 33 be fd 46 cb bd 65 dd 19 3d
       -0.25168094 -0.17552757 -0.09925649 0.037564654
0002f0 2f 0d 5a bd bf a8 c7 3d f2 39 f7 3d 3c 69 95 bd
       -0.05323523 0.09748983 0.12071599 -0.072954625
000300 29 e3 3f 3e db f3 24 3e 71 91 80 3d b2 77 aa be
       0.18738998 0.16108648 0.06277741 -0.33294445
000310 1b 78 39 3e 4f 33 d2 bd 8f 3f 83 3c db 74 8e be
       0.18112223 -0.102636926 0.016021518 -0.2782353
000320 8d 21 b9 be 82 fe a5 be a1 c2 e2 be b1 a9 c0 be
       -0.3615841 -0.32420737 -0.44289115 -0.37629464
000330 62 e1 73 be 26 ce 58 be 0f f6 c9 be a6 dc 23 bf
       -0.23816445 -0.2117239 -0.3944554 -0.6400856
000340 1e 46 5c 3e ed 38 a2 3c b8 62 f8 3d c9 9a e4 be
       0.21511123 0.019802535 0.12128204 -0.44649342
000350 b3 f0 ae bd 84 18 a1 3e 14 6e 65 3e 57 27 bf be
       -0.085420035 0.31464016 0.22405273 -0.373347
000360 6e 19 f3 3c c0 6e 05 bc f1 a0 24 3e b9 33 10 3d
       0.029675212 -0.008144081 0.1607702 0.035205577
000370 5f a5 cc 3e ae 7d 91 3e 4d 37 72 3e d4 b5 3b 3e
       0.39969918 0.28416198 0.23653908 0.1833108
000380 6b 75 a2 3e 68 76 1d bd 93 e1 12 be 2c 60 01 be
       0.31730208 -0.038443 -0.14343862 -0.12634343
000390 5c 10 2c bd 1a 79 82 be fa a9 91 be 2e b5 9c bd
       -0.04200779 -0.25483018 -0.28449994 -0.07651745
0003a0 d6 a2 5f 3e b6 bd a1 3e 21 80 f1 3e 35 85 2b 3e
       0.2183946 0.3159005 0.47168067 0.16750033
0003b0 43 0a 28 3e 58 b2 6e 3e 34 47 52 3e 14 45 bc 3e
       0.16410165 0.2331022 0.20534974 0.36771452
0003c0 f8 07 f7 bc a7 f6 b4 3d 56 eb ea 3d 45 8c 94 3e
       -0.030155167 0.08836108 0.11470668 0.29013267
0003d0 a4 8a d3 be bd 7a 2a be d3 d9 af bb 2b 67 04 be
       -0.41316712 -0.16648383 -0.005366543 -0.1292998
0003e0 ce 10 f4 ba a1 ac 42 bd e7 c5 b4 bd 27 b4 18 be
       -0.0018620731 -0.047527913 -0.088268094 -0.14912473
0003f0 f0 0d aa ba 03 d8 c0 3d 8d a4 91 3d 1a 5e b8 bd
       -0.0012974124 0.09416201 0.07111464 -0.090023234

weight_hh_l0 f4 [256, 64]
000000 ba f5 ae bd 9e a3 2a be b8 2e 84 3e 74 76 71 be
       -0.08542962 -0.16663978 0.25816894 -0.23580343
000010 9c 84 f7 3d 5b a0 2d bf d7 5f 4b be db e3 88 bd
       0.1208584 -0.6782281 -0.19860779 -0.06684085
000020 b4 28 e6 3e f4 0d ee 3e 1b cb bf be 7d af 42 3e
       0.4495293 0.4649502 -0.37459645 0.19012256
000030 84 57 49 bd d3 87 ba be 0f c7 d4 3e 28 6b 21 3e
       -0.049155727 -0.3643175 0.4155812 0.15763533
000040 60 1e 55 be 2c 06 90 be 5f 5b 5c 3e 9b 86 59 bd
       -0.20812368 -0.2812971 0.2151923 -0.053106885
000050 65 95 9a 3d d7 b4 b9 be 0e 3e 56 be eb 60 0e 3f
       0.07548026 -0.36270782 -0.2092211 0.55616635
000060 f9 fa e5 be 7a 12 97 be c3 e4 5c 3d 25 2e ef bb
       -0.4491804 -0.29506284 0.0539291 -0.007299202
000070 87 5a 36 3d 76 46 02 bf a7 3c 0a bf 57 ee 6a bc
       0.044519927 -0.50888765 -0.539988 -0.014339051
000080 b6 93 f9 3e 37 2a 3c bd 5c 3a 98 be e8 08 0a be
       0.48745507 -0.045938697 -0.29732025 -0.1347996
000090 5d 88 7c bc b1 93 f0 bd ab 83 7d bd ed 46 bf be
       -0.015413371 -0.1174692 -0.061893146 -0.373588
0000a0 26 24 a1 bd 35 d4 d2 3c 2a e1 d1 3c 95 a8 1b bb
       -0.07868223 0.025735954 0.025620062 -0.0023751606
0000b0 4c f5 07 bf 59 b1 ab 3d bb 42 6a 3b d0 6c 43 3e
       -0.5310867 0.08383436 0.003574534 0.19084477
0000c0 8d 33 15 bf 81 4d a2 3e d5 ec 55 bf 2a 53 4c be
       -0.58281785 0.31699756 -0.835645 -0.199536
0000d0 cb 3c 75 3e 31 4c 89 3e 4a 97 2d bc 60 fa 05 bd
       0.23948972 0.26815942 -0.010595152 -0.03270948
0000e0 1e 4a 01 be 23 48 14 3e d4 8a ff bd 91 31 fe bd
       -0.1262593 0.14480643 -0.12477651 -0.12411798
0000f0 64 1e 66 bc 29 04 a3 be 7e 70 87 3e 78 fc 47 3e
       -0.014045332 -0.3183911 0.26453012 0.19529903
000100 eb c9 83 3e 51 de 9d bd 07 59 ca 3d d2 42 ac be
       0.2573999 -0.07708419 0.09880262 -0.3364473
000110 1e 8e 9e 3e 91 20 a3 3e e7 30 0a 3e 53 ba 1e bd
       0.30967802 0.31860784 0.13495217 -0.03875191
000120 14 59 46 be 0f 24 48 3e fd e1 17 3e d3 35 18 bd
       -0.19369918 0.19545005 0.14832301 -0.037160706
000130 53 88 ed bd 84 5f c5 bd 7e be 0b be 73 ad 85 3d
       -0.115982674 -0.09637359 -0.13646886 0.065272234
000140 a5 fd e9 bd 73 9c 13 bd 1b e3 8c 3d 9c 47 d8 be
       -0.11425332 -0.036037873 0.068792544 -0.42242134
000150 3e 09 35 3e 4a e0 4a be 31 2f 40 bc 24 f5 70 3e
       0.17679307 -0.19812122 -0.011730001 0.23531014
000160 19 66 66 3e 48 ba 9a bd d6 31 81 3d 59 c0 92 3d
       0.22499885 -0.075550616 0.063083336 0.07165594
000170 f0 36 a2 3e 6e 33 08 be 33 5f 75 be f4 79 aa 3e
       0.3168254 -0.13300869 -0.23962097 0.33296168
000180 3b d1 c7 bd bb d3 eb bd 30 ff 33 be 94 8f cf 3d
       -0.097567044 -0.11514994 -0.17577815 0.10134807
000190 00 6a 18 3f 11 f6 86 3d e7 d2 95 3e 0c b7 41 3e
       0.59536743 0.06589902 0.29262468 0.18917483
0001a0 9f 17 8c 3e 38 37 1d be 48 a6 52 bc 0d 39 70 3e
       0.2736177 -0.15353096 -0.012857027 0.23459263
0001b0 94 65 2e 3e 23 1f 33 3e e0 50 eb bc 72 28 09 3c
       0.17030936 0.17492346 -0.028725088 0.008371459
0001c0 65 c4 3d be 03 15 1f 3c c1 e6 8b 3e c0 70 b5 3d
       -0.1853195 0.009709599 0.2732449 0.08859396
0001d0 59 90 81 bd 27 35 7d be 90 4c ad bb 0f d8 08 bf
       -0.0632636 -0.24727307 -0.005288668 -0.5345468
0001e0 37 3d 28 bd 71 64 89 3e c1 41 b0 bd 58 6d 9b be
       -0.041074004 0.26834443 -0.086062916 -0.3035686
0001f0 cf cc ad 3e 94 d4 67 be d6 e2 ae 3e f0 17 b3 bd
       0.3394532 -0.22639686 0.34157437 -0.087448
000200 6a 7b b2 be 7e 4f 1d 3e 79 cc 73 be 66 3d bc bd
       -0.34859782 0.15362355 -0.23808469 -0.09191398
000210 1b ff b0 3e 29 b0 f5 3e d6 47 34 3d 61 57 7a bc
       0.3456963 0.47985962 0.04401382 -0.015279622
000220 40 9d 6b 3e 39 3b 9d bc 7f f9 ab 3d 2f d4 d2 bc
       0.23009205 -0.019193279 0.08397197 -0.025735943
000230 e5 70 13 3d 62 65 44 3e 93 89 f6 be 4c b0 0b 3f
       0.035996336 0.191793 -0.48151836 0.5456588
000240 39 f0 48 be d0 dd 8b 3d f6 42 9d bd 6a 2b 36 3e
       -0.19622888 0.06829417 -0.076787874 0.17789999
000250 9d d0 2a be d2 33 04 bf aa 79 3b 3e fd cb 59 bd
       -0.16681142 -0.5164157 0.1830813 -0.053173054
000260 ab 10 94 3e 6c d4 80 bc c6 6d 40 3e cc 9e 38 3e
       0.28918967 -0.01572629 0.18791875 0.18029326
000270 f4 f5 03 3e 2b 33 5f 3d bc 70 4f 3e d7 8b 93 be
       0.12886792 0.054492157 0.20257849 -0.28817627
000280 03 a1 6b bb e4 eb ad bd 75 df 84 3e e0 53 25 be
       -0.0035954125 -0.08492258 0.25951734 -0.16145277
000290 59 48 8e 3d 37 8f 56 be 01 ad b3 3d e1 39 b9 bd
       0.06947393 -0.2095307 0.08773232 -0.09044243
0002a0 ad b0 ad bd bf 68 ef be 9e 55 94 be 2e 5d 35 3e
       -0.08480964 -0.46759602 -0.2897157 0.17711326
0002b0 79 fd 14 be ad 26 2e 3e 7c 26 13 3e 10 92 da be
       -0.14549817 0.17006941 0.1437015 -0.42689562
0002c0 5f 90 4e bd 15 6c b3 be 12 a8 33 3e ef 80 aa bb
       -0.05043065 -0.35043398 0.17544582 -0.0052033584
0002d0 ea a4 21 3f 67 88 91 3e 39 41 f4 bd b5 86 6a be
       0.63142264 0.2842438 -0.11926503 -0.22902949
0002e0 44 a2 8f be 79 4f 24 3e a6 63 10 be 92 9f dc bd
       -0.28053486 0.16045941 -0.14100513 -0.10772623
0002f0 14 51 92 bf 30 6f d7 be 77 ca 21 be bf 00 1f bf
       -1.1430993 -0.42077017 -0.1579989 -0.62110513
000300 b2 d2 e1 be b2 82 05 bf 26 46 42 bd 75 a6 37 be
       -0.4410606 -0.5215255 -0.04743018 -0.17934592
000310 96 a1 1e 3d f7 dd 37 be 13 2b 1c be b4 98 ab 3b
       0.03872832 -0.17955767 -0.15250807 0.0052367095
000320 14 55 4b 3e e1 bb 1f 3e 4a e3 d0 3e ac fe 0f 3d
       0.19856673 0.15599014 0.40798408 0.035154983
000330 7c f4 9e bd df b3 70 be 16 92 5d 3d 31 ad 96 3d
       -0.077614754 -0.23506115 0.054094397 0.073572524
000340 4b 88 ab bd 6a be b6 bd e4 06 78 3d db 59 ab be
       -0.08375605 -0.08923037 0.060553446 -0.33466992
000350 a4 2c 17 3e ce 21 06 bf be dc 3c be bf 05 b3 be
       0.14763123 -0.5239533 -0.18443581 -0.3496532
000360 ac 06 89 bd c9 ee 81 3e 56 0d 80 3e 11 3c a1 bd
       -0.06690726 0.2537749 0.25010175 -0.07872785
000370 81 4f 5b be da d7 51 be 5b c7 81 3e cf 90 3b 3e
       -0.21417047 -0.20492497 0.2534741 0.18316959
000380 f1 c5 c6 be 94 fa 1d 3c 37 c4 aa be d1 fe 8e 3e
       -0.38822892 0.009642262 -0.33352825 0.27928784
000390 21 9c 4d 3e b4 43 99 3e b1 62 e8 bd 31 ce bb bd
       0.2007909 0.29934466 -0.11346949 -0.09170187
0003a0 05 d2 b9 3d 43 bc 8b 3e 47 cc df be 2c a9 53 bd
       0.09073261 0.2729207 -0.4371054 -0.051675007
0003b0 bc 09 d8 3d 4a 37 2c be 03 6d 96 bd 75 75 5f 3d
       0.10548732 -0.16817966 -0.07345011 0.054555375
0003c0 36 6e 5f 3e 72 30 c5 3b c3 ff 55 3e af d0 d9 be
       0.21819386 0.006017738 0.20898347 -0.42542025
0003d0 8e 23 94 3e 38 2f 6e be 35 08 b5 be 23 96 37 bf
       0.28933376 -0.232602 -0.35357824 -0.71713465
0003e0 f6 bf c0 bd 64 57 ae 3d 8f f7 ce be 8b ae cd bb
       -0.09411614 0.08512762 -0.40423247 -0.0062769107
0003f0 ee b0 0e 3f d8 77 27 be 98 ca aa 3e c7 2f 83 be
       0.55738723 -0.1635431 0.33357692 -0.2562239

bias_ih_l0 f4 [256]
000000 13 57 d8 3d e5 ad ef bd 4b 38 83 3d ec 94 c7 bd
       0.10563483 -0.117030896 0.064072214 -0.097452015
000010 cd cd c7 bd f9 41 92 bd d4 06 38 be 0f 3b 71 3d
       -0.0975605 -0.071414895 -0.17971355 0.058894213
000020 c4 54 96 3d 84 83 ad 3c 76 df ba bd 85 06 0a 3e
       0.073403865 0.021180876 -0.09124653 0.1347905
000030 27 50 6f bd 9e 10 9d 3d 5c a5 85 3d 3a 18 24 3b
       -0.05842605 0.07669185 0.065256804 0.0025038854
000040 2c ca 2c 3d 79 45 b3 3d 7d 2a ce 3d b2 9a bf bd
       0.042184994 0.08753485 0.10066698 -0.09355678
000050 84 39 87 be 8d 8a 4a 3d 0e b8 00 be 0a 9b 75 3b
       -0.26411068 0.04944854 -0.12570211 0.0037476444
000060 c0 cc 89 bd 81 5c ae 3c 9b 96 6b 3e c7 83 d2 3d
       -0.06728506 0.021284344 0.2300667 0.10279041
000070 00 90 cf bd 78 09 27 3d 85 d7 a1 3d 27 f5 d8 bd
       -0.10134888 0.040780514 0.07902435 -0.10593634
000080 62 a2 6a bc b8 0f fa 3c 65 2a 3d bd c3 05 4f bd
       -0.014320942 0.030525073 -0.04618301 -0.050542604
000090 a6 bf b6 3d e6 d8 1f 3d 1d 11 c2 bd cc 9a f2 bb
       0.08923273 0.03902521 -0.0947592 -0.007403707
0000a0 bb 91 10 ba 49 8f 0e 3d a8 82 da 3d 4b c9 f6 3d
       -0.00055148796 0.034804616 0.10669452 0.12050112
0000b0 9d 0c d0 bd 76 76 5a 3e c8 e0 c8 bd bf c3 49 be
       -0.10158656 0.21334252 -0.098084986 -0.19703577
0000c0 d6 40 dc bc c8 fe f5 bc d9 9a 13 be 8a 81 17 be
       -0.026886385 -0.030028716 -0.14414538 -0.14795509
0000d0 2d 79 b3 bc b7 27 5a bd bf 52 d1 3b 42 66 97 be
       -0.021908367 -0.05326053 0.006388038 -0.29570204
0000e0 55 77 86 3d 03 f9 e8 bd 42 50 85 bd 2c 67 dc 3b
       0.065657295 -0.1137562 -0.065094486 0.0067261662
0000f0 bc 84 da 3b db de 43 bd 07 4c 0d 3d 7b 41 a6 3d
       0.006668655 -0.047819953 0.034496333 0.08117958
000100 7e 84 09 be be c8 e7 3d 0f 0c bd 3d 02 ff 57 bd
       -0.13429448 0.113175854 0.092308156 -0.05273343
000110 d2 5d 84 3d 63 16 6d be c4 ce 7c 3c e6 50 eb 3d
       0.06463207 -0.23153071 0.015430156 0.114900395
000120 b3 10 54 bd 12 a2 76 bd 16 fc 2d 3d 61 fe 50 3e
       -0.051773738 -0.060213156 0.042476736 0.20409538
000130 86 19 24 3d 47 9c a7 bd 50 9c 85 bb 96 a7 8e 3d
       0.040063404 -0.081841044 -0.004077472 0.06965558
000140 aa a6 50 3d ee 18 85 3e 36 2b 6c 3e d8 6e 78 bd
       0.050940193 0.25995582 0.23063359 -0.060652584
000150 b6 41 92 3e 6c c0 33 3e 02 92 d0 3c f3 83 c9 3a
       0.28565758 0.17553872 0.025460247 0.0015374407
000160 ac e5 85 bd c4 50 7d bd 59 d9 41 bd a5 c0 fb 3d
       -0.06537947 -0.061844602 -0.04732642 0.122926034
000170 08 9e 01 be 85 ca 7b 3e 2e 9d 06 bd e8 b2 73 bd
       -0.1265794 0.24588974 -0.032864742 -0.05949679
000180 08 c9 95 bd ae 42 11 bc 26 92 15 be 59 15 25 3c
       -0.07313734 -0.008865995 -0.14606532 0.01007589
000190 20 62 1e bd e8 48 0e bd 0e a9 99 bd d4 b7 01 bd
       -0.038667798 -0.034737498 -0.07502948 -0.031669453
0001a0 e7 06 73 bd 9c 61 62 3d 29 c7 71 3d 92 84 eb 3d
       -0.059332754 0.05526887 0.059027825 0.11499895
0001b0 46 7e 5b 3c 4d e9 8b 3e b4 ee 91 3e c2 2a 2a 3c
       0.013396805 0.27326432 0.2850243 0.010386171
0001c0 7c 9e 1b 3d 03 aa 2c 3d 4a e0 60 3d 49 80 84 3c
       0.03799294 0.042154323 0.0549014 0.016174452
0001d0 e7 74 29 3d 4f df 61 bd d5 72 c4 3d 6f 56 4a be
       0.041371252 -0.055144604 0.09592215 -0.19759534
0001e0 e0 8b fc 3c 12 dd 69 3e 22 b3 af 3d 0b f5 7d 3e
       0.030828416 0.22838238 0.08579089 0.24800508
0001f0 7b ad ab 3e e1 d6 5b 3c e9 aa bd 3c d4 24 0a bd
       0.33530793 0.01341793 0.023152785 -0.03372653
000200 80 a7 9c bd ea 12 c5 3d 9d 77 4c be bf 01 1a 3d
       -0.076491356 0.09622748 -0.19967504 0.03759932
000210 c1 f1 f3 bd 4c 51 3f 3e 74 7d 1d 3e bd f6 9b 3d
       -0.11911345 0.18683356 0.15379888 0.07615421
000220 cb 6f 26 3e 1d bb 52 be d8 f3 ea bd 9c 14 45 be
       0.16253583 -0.2057919 -0.11472291 -0.19246143
000230 9e 0f c8 bd 4a f4 0c 3e 5f a5 ab bd 25 d0 40 3e
       -0.09768604 0.13765064 -0.083811514 0.18829401
000240 a5 a9 41 3e 66 f8 02 be a9 34 c6 bd 71 e4 fc 3d
       0.1891237 -0.12790069 -0.09678013 0.12348259
000250 f4 96 c7 bd ea 9a 77 3c 61 2f e2 bd dc 77 47 be
       -0.09745589 0.015112618 -0.11044193 -0.19479316
000260 93 c6 b9 bd 9d f6 da 3d f2 52 84 be 48 99 8c bc
       -0.09071078 0.10691569 -0.25844532 -0.017162934
000270 72 91 1e be b6 2f 2c be c6 1e 2f bd a2 e5 c2 bc
       -0.1548517 -0.16815075 -0.042753957 -0.023791138
000280 27 07 a5 3d f4 be 76 be 61 55 18 3d 28 8c 08 3e
       0.08058005 -0.2409628 0.0371908 0.13334715
000290 36 f5 d5 3d e9 30 12 bd 09 76 d5 bb 01 98 a1 3d
       0.10447161 -0.035691176 -0.006514315 0.078903206
0002a0 11 1d 7f 3d 39 48 48 be 8e 66 3d be 6d cb 40 be
       0.06228358 -0.19558801 -0.18496153 -0.18827601
0002b0 9f 01 88 bd 5b 86 12 3e c8 bd fe bd c6 3b 85 be
       -0.06640934 0.14309065 -0.12438542 -0.26022166
0002c0 16 b8 25 3e d0 db c5 bb ec bc 7c bd 5a 31 ee bd
       0.16183504 -0.0060381666 -0.061703607 -0.11630507
0002d0 d0 3b be bd 9b 4e 4a 3d 1d ac 2e be e5 13 0c 3e
       -0.09288752 0.04939137 -0.17057844 0.13679464
0002e0 7d d4 97 3e aa 70 14 3d 03 79 a3 bd 6d 89 8f bc
       0.29654303 0.036240257 -0.079820655 -0.017521584
0002f0 a6 d3 a9 bd 3a 17 da 3d b1 40 9a 3d 0b fe 74 3e
       -0.08292322 0.10648961 0.0753187 0.23925035
000300 cf be e8 bc 67 5f a1 3b 3f 5d 33 be d2 d8 d9 3d
       -0.028411297 0.004924703 -0.1751604 0.10637058
000310 dd 7d d2 bd 40 49 d8 3c bc ad 8c be 4b 97 53 bc
       -0.10277913 0.026402116 -0.274763 -0.012914489
000320 3d b5 0f be e5 63 54 bd 26 e9 62 3d f9 26 7f 3d
       -0.1403398 -0.05185308 0.05539813 0.062293027
000330 02 0a 55 be 9f 1e 32 3d 85 06 1a be bb 0d 60 3c
       -0.20804599 0.043486234 -0.1504155 0.013675149
000340 95 29 04 be 69 b9 18 3e 5f ef fc bc 82 a2 0f 3e
       -0.12906487 0.14914478 -0.03087586 0.14026836
000350 89 26 fa 3a 3e 94 6b 3e 45 b8 fe bb c3 d4 b1 3d
       0.0019084971 0.23005769 -0.0077734315 0.08683159
000360 2a d5 78 bd 5c 34 82 bd 53 cb 0c bd 13 dc af bc
       -0.060750164 -0.06357643 -0.034373593 -0.021467244
000370 54 e0 ba 3d bb 00 e6 3d 4d 9c 11 3e 82 96 13 3d
       0.091248184 0.11230608 0.1421978 0.036032207
000380 3c 74 8c 3a 4a 26 e8 3d b7 e5 15 bb c8 15 f4 3d
       0.0010715793 0.11335428 -0.0022872516 0.11918217
000390 27 8b 91 bd a2 48 46 3d 3e e0 43 bc dd 00 77 bd
       -0.07106619 0.04840911 -0.011955319 -0.060303558
0003a0 41 7e de 3d 51 1a c2 3d a8 3d 4a be f7 19 fe bd
       0.10863925 0.09477676 -0.19750082 -0.12407296
0003b0 e9 02 dc bc a6 8b a8 3d d4 f4 06 3b c9 67 45 bd
       -0.026856856 0.08229761 0.0020592706 -0.04819468
0003c0 40 7a f3 3c 69 35 f9 bd 07 a3 94 3d 53 f9 02 be
       0.02972138 -0.1216839 0.072576575 -0.12790422
0003d0 5e fd 4e 3d 79 86 b8 bd 59 54 86 3d 81 cd c8 bc
       0.0505346 -0.090100236 0.06559057 -0.024512054
0003e0 5f fc 9d bd 89 ed e3 3c 82 b1 2c be b3 66 44 be
       -0.077141516 0.027823227 -0.16864589 -0.19179802
0003f0 c1 50 33 bd c0 ae fe 3c c6 a4 2e bc 43 e4 46 be
       -0.043778185 0.031089187 -0.010659402 -0.19423012
